…
# èåˆBNå’ŒConv fused_conv = fuse_conv_bn_eval(conv, bn) # æ›¿æ¢Nodeçš„moduleï¼Œå…¶å®å°±æ˜¯å°†èåˆåçš„moduleæ›¿æ¢Conv Nodeçš„targetï¼ŒèƒŒåæ˜¯æ¨¡å—æ›¿æ¢ replace_node_module(node.args[0], modules, fused_conv) # å°†æ‰€æœ‰ç”¨åˆ°BN Nodeçš„æ›¿æ¢ä¸ºConv Nodeï¼ˆå·²ç»èåˆåçš„Convï¼‰ node.replace_all_uses_with(node.args[0]) # åˆ é™¤BN Node new_graph.erase_node(node) return fx.GraphModule(fx_model, new_graph) from torch.fx.experimental.optimization import fuse from torchvision.models import resnet18 model = resnet18() model.eval() # å¿…é¡»åœ¨evalæ¨¡å‹ä¸‹fuse ''' (layer4): Sequential( (0): BasicBlock( (conv1): Conv2d(256, 512, kernel_size=(3, 3), stride=(2, 2), padding=(1, 1), bias=False) (bn1): BatchNorm2d(512, eps=1e-05, momentum=0.1, affine=True, track_running_stats=True) (relu): ReLU(inplace=True) (conv2): Conv2d(512, 512, kernel_size=(3, 3), stride=(1, 1), padding=(1, 1), bias=False) (bn2): BatchNorm2d(512, eps=1e-05, momentum=0.1, affine=True, track_running_stats=True) (downsample): Sequential( (0): Conv2d(256, 512, kernel_size=(1, 1), stride=(2, 2), bias=False) (1): BatchNorm2d(512, eps=1e-05, momentum=0.1, affine=True, track_running_stats=True) ) ) (1): BasicBlock( (conv1): Conv2d(512, 512, kernel_size=(3, 3), stride=(1, 1), padding=(1, 1), bias=False) (bn1): BatchNorm2d(512, eps=1e-05, momentum=0.1, affine=True, track_running_stats=True) (relu): ReLU(inplace=True) (conv2): Conv2d(512, 512, kernel_size=(3, 3), stride=(1, 1), padding=(1, 1), bias=False) (bn2): BatchNorm2d(512, eps=1e-05, momentum=0.1, affine=True, track_running_stats=True) ) ) (avgpool): AdaptiveAvgPool2d(output_size=(1, 1)) (fc): Linear(in_features=512, out_features=1000, bias=True) ) ''' fused_model = fuse(model) ''' (layer4): Module( (0): Module( (conv1): Conv2d(256, 512, kernel_size=(3, 3), stride=(2, 2), padding=(1, 1)) (relu): ReLU(inplace=True) (conv2): Conv2d(512, 512, kernel_size=(3, 3), stride=(1, 1), padding=(1, 1)) (downsample): Module( (0): Conv2d(256, 512, kernel_size=(1, 1), stride=(2, 2)) ) ) (1): Module( (conv1): Conv2d(512, 512, kernel_size=(3, 3), stride=(1, 1), padding=(1, 1)) (relu): ReLU(inplace=True) (conv2): Conv2d(512, 512, kernel_size=(3, 3), stride=(1, 1), padding=(1, 1)) ) ) (avgpool): AdaptiveAvgPool2d(output_size=(1, 1)) (fc): Linear(in_features=512, out_features=1000, bias=True) ) ''' ","date":"2023-07-23","objectID":"/torch.fx%E6%A8%A1%E5%9D%97%E7%9A%84%E4%BD%BF%E7%94%A8/:2:0","tags":["pytorch","torch.fx"],"title":"Torch.fxæ¨¡å—çš„ä½¿ç”¨","uri":"/torch.fx%E6%A8%A1%E5%9D%97%E7%9A%84%E4%BD%BF%E7%94%A8/"},{"categories":["pytorch"],"content":"å‚è€ƒé“¾æ¥: PyTorchæ–°æŠ€èƒ½è§£é”ï¼štorch.fx - çŸ¥ä¹ (zhihu.com) ","date":"2023-07-23",
…
